model_cnn.pth (torch, 434767 bytes, 8 tensors)

conv1.weight f4 [6, 3, 5, 5]
00000000: 1532 243e 8635 7e3e 8c08 233e 4b6d 1bbd
00000010: be7d 80bd 72f3 513c b8a5 023e 23e5 943d
00000020: 0231 283e 44db 9dbc 0f55 14be 5b4a 8ebe
00000030: a228 86be 19a7 f2bd 39f2 323c 8c28 b9bd
00000040: 0dfd 88bd 035d ddbc 64b1 c7bd 2751 da3d
00000050: 6c9d a33b 0113 eb3d 2476 94bc 4833 a23d
00000060: c14e e23c da96 343e 9655 063e e6f8 323e
00000070: 7614 bebc fb56 80bd 35d7 90bb cfc0 693d
00000080: 87ec 8abd b190 03bd 500c f53d 94bc 20be
00000090: ec28 59be 1ce0 b3be de5b c5ba 69a5 c1bc
000000a0: a7cb bbbd 9835 b5bd d9ad 453a f822 a4bb
000000b0: 0c28 e1bd 32ae fd3d b70f d43d 9c9a 123e
000000c0: 9de3 19bd 2a07 e5bc 347b 303e 8e45 34bc
000000d0: 3635 143e 40eb 92bd 8e11 a0bd 901e 4d3b
000000e0: e622 67bd b631 033e 1fba 0e3e 2603 323d
000000f0: f02d 7fbe cf54 84be 42e2 e0bd 3313 b5bd
00000100: 8631 de3d f99b 953d 91bd c4bd ae8b 243d
00000110: 168c 073d d252 523d d28f c13c 2623 203e
00000120: 8b87 2a3d 50f3 d1bc 426a d2bc 4667 29bc
00000130: ce02 69bd 1c32 66bd b407 753d 59a2 6e3d
00000140: 7718 383e 43bf 96be f00c 60be ee26 383e
00000150: 0efb 9e3d 412b 523e 2e03 4dbe 76c3 5ebe
00000160: 7b41 713d bdde 423e b518 54bb 12b3 fcbc
00000170: e820 f4bd 3c4f 033e 7b7e 293d 57ef 983d
00000180: 2c54 bdbd 53bd df3d 9b70 46bc aef8 bebc
00000190: f701 fd3d 9e19 44be 1876 8bbd 1e0a 083d
000001a0: be84 213e 2f70 da3d da65 5fbe b4d0 d1bd
000001b0: 511b 833d 6d82 653e 1de1 423e c466 8abe
000001c0: eb79 dbbd e472 7d3d c9d9 e23d c15b 5cbc
000001d0: 153e 27bd 5c00 cabd 09b1 4fbd 6807 83bc
000001e0: 7068 513d 283a 043d 9c39 28bc 15a8 c9bd
000001f0: df4c 153d 2ad4 e13d a238 41be 3d4d f4bd
00000200: bc6e 8a3d ec20 0c3e 40ae f53d 4c88 8abe
00000210: c767 aebd bb44 e43d 200d f23d 6048 c53d
00000220: 444d 8ebe 5873 25be 73ff 403e 8a31 593e
00000230: cd8b 153e 9b57 21be 4ab9 02be 1634 6e3d
00000240: b0e8 883d 40dc 043d 4f0a c6bd b6c3 5a3d
00000250: 3364 3abd 89d9 323d 7a78 5f3e c82e c83d
00000260: 30a7 af3d 448f b83d 5e78 2b3e 7748 5b3e
00000270: 51ed 0f3e 0c79 523e 6dde 133d 3b5b 6a3e
00000280: f24f 013e 8127 083d b3ba 063e 5c33 b23d
00000290: 1f74 bb3d 0c79 b4bd 6707 06bd 4646 213e
000002a0: 11d6 d33c 892c e7bc 90b4 2abd c9e3 c8bd
000002b0: 9f2c 0bbe 80ae 21bd 0ca7 b4bd 7453 75be
000002c0: e995 2ebe 7302 42bd eb9e 3fbe f774 23be
000002d0: a678 c8bd b067 ecbd 8c50 00be e1ec d5bc
000002e0: 194f 0fbe f9c7 0cbe bcb3 87bd 9454 10be
000002f0: 77d0 c2bd 0187 30bd 4440 383d 1abf 90b9
00000300: 53d8 05bd a531 b6bc 04f8 aa3d ea2a 3fbc
00000310: e883 4abd 3ede f53d b763 073d cc90 df3d
00000320: 6a36 e43c 2736 be3d 1dca 82bd 3f8e 4d3c
00000330: 5348 bdbd df1d a4bc fcb5 6fbd bc85 2bbe
00000340: c4c1 d43b 6dca fabd 66a5 debd 1300 ccbd
00000350: 2fca afbd 8011 803b 02b6 1d3e 6111 fcbd
00000360: 2099 a5bd b0ae efbc f158 2b3d c70e e93d
00000370: 337c 85bd 7d88 373e 789e f53d caf0 6c3c
00000380: 2112 3e3e 1b8f c73d c427 ec3d 7072 143d
00000390: a25b 983d 2714 e43c 8179 233e 4332 b13d
000003a0: 5efa d7bc f815 f4ba 4e46 bdbd b8a0 ae3d
000003b0: ec08 263d 4926 84bd 5268 a83d b761 95bd
000003c0: 384e 4039 1ccb 30bd d75d fd3c fc3a eabb
000003d0: beb1 d63d ce9b 7c3d 7f54 0b3d 2aa4 c13d
000003e0: bb59 aebd d8c1 a73d be4a 5dbd 288e 753d
000003f0: ad65 b7bd 6391 1abe c666 b8bd a48e a8bd
0.1603473 0.24825105 0.15921229 -0.037946027 -0.062739834 0.01281439 0.12758529 0.07270267
0.16424945 -0.019269593 -0.14485572 -0.27791104 -0.26202875 -0.118482776 0.010922008 -0.09040937
-0.066888906 -0.02702189 -0.097506315 0.1066001 0.0049931314 0.11478234 -0.01812274 0.07919937
0.027625443 0.1763567 0.13118586 0.1747776 -0.023203116 -0.0626659 -0.004420186 0.057068642
-0.06783395 -0.03212041 0.11965239 -0.15696937 -0.21207017 -0.3513192 -0.0015057286 -0.023638444
-0.09169703 -0.08848113 0.0007540859 -0.0050090514 -0.109939665 0.12386741 0.1035456 0.14316791
-0.037570585 -0.027957518 0.17234498 -0.011002911 0.14473423 -0.071737766 -0.07815848 0.0031298734
-0.056429766 0.12811932 0.13938187 0.043460034 -0.24919868 -0.25845954 -0.10980655 -0.088415526
0.108492896 0.0730514 -0.096064694 0.04017227 0.03309258 0.051348515 0.02362815 0.15638408
0.04163317 -0.025628716 -0.025685433 -0.010339564 -0.05688744 -0.05620013 0.0598218 0.058260296
0.17978083 -0.29442796 -0.21879935 0.179836 0.07762729 0.20524313 -0.20020744 -0.2175425
0.058900338 0.1903028 -0.003236336 -0.030847106 -0.11920339 0.12823194 0.041380387 0.074675255
-0.0924457 0.109247826 -0.012111808 -0.02331194 0.123538904 -0.19150397 -0.06809634 0.033212774
0.15773293 0.106659286 -0.21816197 -0.10244885 0.064016946 0.22413035 0.19031186 -0.2703153
-0.107166134 0.061877146 0.110766955 -0.01344961 -0.04083069 -0.0986335 -0.050705943 -0.015994743
0.05112499 0.032282025 -0.010267641 -0.09846512 0.036450263 0.11026795 -0.1886926 -0.119287945
0.06759402 0.13684434 0.11996126 -0.2705711 -0.08515888 0.11145922 0.1181891 0.09632945
-0.27793324 -0.16157281 0.18847446 0.21210304 0.14604111 -0.15756075 -0.12765995 0.05815514
0.066850066 0.03243661 -0.09669935 0.0534093 -0.045505714 0.04366449 0.21823302 0.09774548
0.0857681 0.09011701 0.16745135 0.21414362 0.14055373 0.20553988 0.036100794 0.22886364
0.12628153 0.0332408 0.13157158 0.08701202 0.09153008 -0.0881215 -0.032721903 0.15749463
0.02585891 -0.028219478 -0.041676104 -0.098090716 -0.1359124 -0.039473057 -0.08820924 -0.23957616
-0.17049374 -0.047365617 -0.18712966 -0.15962587 -0.09788637 -0.11543214 -0.12530726 -0.02611393
-0.13995017 -0.13748159 -0.066260785 -0.14094764 -0.09512418 -0.0430975 0.044983163 -0.00027608202
-0.032677006 -0.02224047 0.083480865 -0.011667946 -0.0494422 0.1200528 0.03305408 0.1091629
0.027857978 0.092876725 -0.06386206 0.012546121 -0.092423104 -0.020033775 -0.058523163 -0.16750234
0.006492825 -0.12245641 -0.10871391 -0.09960952 -0.08583485 0.003908336 0.15401462 -0.12308002
-0.08085847 -0.029258102 0.041832868 0.11379772 -0.0651783 0.1792316 0.11993116 0.014461705
0.18561603 0.09744092 0.11531022 0.03624195 0.074393526 0.02784164 0.15964319 0.08652165
-0.026364502 -0.001862227 -0.09241925 0.085267484 0.040535852 -0.06452615 0.082230225 -0.07294028
0.00018339686 -0.04316245 0.030928535 -0.0071481448 0.104831204 0.061672024 0.03401613 0.0945514
-0.085132085 0.0819127 -0.054026358 0.059950024 -0.0895494 -0.15094523 -0.090039775 -0.082303315

conv1.bias f4 [6]
00000000: ca44 c7bc 1dbc 8dbc c65e 6c3d 01c7 87be
00000010: 7ac2 013e fb73 dbbd
-0.024324793 -0.017301613 0.05770757 -0.26519015 0.12671843 -0.10715481

conv2.weight f4 [16, 6, 5, 5]
00000000: 0eab a13e 7a06 c33d 8bdb 2d3c a42b 53bd
00000010: 93b8 883d 24dc 3e3e e7c9 233d efad 18be
00000020: 3d9d 63bd 7fca 5abd 1393 453e 7e08 e63d
00000030: 8cbe 05be 172a ddbd 69aa 2dbe 1431 5bbd
00000040: bfc6 2abe 2bae d5be 7d02 b4be 0dfc f4be
00000050: 85e5 003e 4d5e ee3d 426f b43d 7950 ac3d
00000060: ffa5 f2bd e13d 9a3d 78b2 9cbc d81c 193d
00000070: 61da 963d ba4b 703e 7072 cbbd ded7 3c3d
00000080: 9593 7b3d 062e 19be f151 543e af92 44be
00000090: 5620 113e b45e 243d 1ebe 28be 8fb5 953e
000000a0: 0524 64be dc4f 3b3e 9829 82bc 8e21 813c
000000b0: 53cf ab3e 2ac0 30be 5454 ff3d c700 fabd
000000c0: a7ce 8f3b def6 723e 1d77 58bd 90f5 193c
000000d0: 5efc e93c 59e1 59bd cc67 b63d 2014 823c
000000e0: 5487 323e 39a7 a53d 78c7 92bd ad5a 183e
000000f0: 346a c3bd ccfe 1abc 02be 763d b0c6 e6bd
00000100: 7c94 ce3d 033d 68bc caca 183d 259c 563d
00000110: 82f9 ccbd 73b3 b33d af7e 10bd ac94 0a3e
00000120: 79dd 3dbd f213 93bd 3c0a 6c3d 9117 203e
00000130: 93af 363e 44be c13d 65b8 433e 14e1 c13d
00000140: 570d abbd e732 7e3d 5cf2 cd3c cccb 0c3d
00000150: 116b f83c ef6a d53c 4776 a03b f14c 92bd
00000160: 4efc 9f3d 8141 86bd 1f54 c4bd ca84 34bd
00000170: 6557 8dbd c12c c23c e0f3 efbc ecde 97bd
00000180: 5598 1ebd 3bfd d3bd 7149 023d 8efb 87bd
00000190: 15ae b73d a20a 253d 722c 4e3d 78dc 703d
000001a0: 63c3 1f3e b518 783d a2ac 233c b768 84bd
000001b0: 70f4 e43c 64f8 953c b9f4 d83c 3f86 ae3c
000001c0: d941 70bd 5c2f 243b 46c6 a5bc 60ea b53b
000001d0: 1ac8 b7bc 5662 a9bd 1584 17bb 8973 23bd
000001e0: 614d 6abe a992 dbbd 4ba1 7dbd d392 29bd
000001f0: eb20 a7bd 2c66 df3d eae6 f53d a902 2f3d
00000200: 6dac dabd c804 cf3c 7f75 8f3d ea7b 0d3e
00000210: d03a cf3d b55c 18be c37e 493c a698 613d
00000220: f63c fa3d f3e4 f13c 0ccb 07be ad06 98bd
00000230: 6a5f 823b cf4d 823d 6830 22bd e9af 4cbe
00000240: afa9 a3bd 739d f7b9 5f70 52bc aa99 3bbd
00000250: 83f3 3abe a038 1dbe 537b 993e ab26 613e
00000260: 9715 a23d 9d82 da3d 4e1f 263e 4005 683e
00000270: b0d1 893e 471b df3d 5242 593e 62ab 723e
00000280: 756d 443e 396d 333e b1ca 0e3e b9ba 0d3e
00000290: f39a 7c3e 6520 b13d 723f d83d 8415 0a3d
000002a0: 9bf3 613b 8f44 513c 5203 2a3e 3bc6 933c
000002b0: 65e9 99bd 9736 64be 5cd4 74bb 34b7 1c3e
000002c0: 9822 183e a0a2 a63d 3ead b23d 7c9f cf3d
000002d0: b9a1 43be b9fb 9bbe 6c63 20be fe6f 57be
000002e0: f43e 30be 48e7 efbe 7186 1fbf 1864 29bf
000002f0: 4181 10bf 99c8 b6be 63dd edbe e8c8 44bf
00000300: e90f 6dbf 0c74 79bf f858 22bf b244 b4be
00000310: 5c0b 1dbf da65 3cbf f776 2cbf c413 9ebe
00000320: 0106 21bd 5ec7 013e 7467 db3d f1fd 183e
00000330: eb19 6d3d 8491 1abe 2aa2 003c 6b9e 8f3d
00000340: 4ab3 8d3d fc40 e63d b4b0 34bc 7f9d 183e
00000350: 307b 403e ab55 163e 5212 5c3d c1cf 313c
00000360: 98ad 023e 26b6 133e 28d8 133e 4bfa d03d
00000370: 2068 c5bc 0c1e 3ebe 2c56 49be 69b6 23be
00000380: 3dcd 1dbe 2374 c73d b07b 033d 4ec9 973d
00000390: 8d06 3c3e 2b8f fe3d 35e2 a0bc e12a d0bb
000003a0: ab3e 413a 1157 8e3a 4ce6 0b3e 6745 7f3d
000003b0: 7f7a 0cbe 94a2 a2bd 9c61 c1bd 509a 413d
000003c0: 1a86 d9bc 31a7 47be d77f 64bd a975 9cbc
000003d0: c1b5 2b3e cd3f 983d 6077 00be 2f94 a2bd
000003e0: 80c6 dbbc c11c 213d 07c8 d33d 81c4 873d
000003f0: 4894 853d 96e6 fabc 0989 cb3d f368 8c3d
0.31575817 0.0952272 0.010611425 -0.05155529 0.0667583 0.18638664 0.03998747 -0.149101
-0.055569876 -0.05341577 0.19294386 0.112320885 -0.13060969 -0.107990436 -0.16959538 -0.0535136
-0.16677378 -0.41734442 -0.35158148 -0.4784855 0.12587555 0.1163908 0.08810283 0.084137864
-0.118480675 0.07531334 -0.01912807 0.037381023 0.07365871 0.23466387 -0.099339366 0.046104304
0.061420042 -0.14958963 0.20734383 -0.1919658 0.14172491 0.04012938 -0.16478774 0.2924008
-0.22279365 0.18292183 -0.015888974 0.01576307 0.33556613 -0.17260805 0.12467256 -0.122071795
0.0043886486 0.23726985 -0.05284797 0.009396926 0.02856272 -0.053193424 0.089065164 0.015878737
0.17434436 0.08088536 -0.07166952 0.1487834 -0.09541741 -0.009460162 0.0602398 -0.112683654
0.10086915 -0.014174703 0.03730277 0.052395005 -0.10008527 0.087744616 -0.035277065 0.13533276
-0.04635379 -0.07181539 0.057626948 0.1563399 0.17840414 0.094601184 0.1911331 0.09466758
-0.08352154 0.062060263 0.02513998 0.034374043 0.03032449 0.026051966 0.0048969123 -0.07143582
0.07811795 -0.06555463 -0.09586357 -0.04407195 -0.06901435 0.023702981 -0.029291093 -0.07415566
-0.038719494 -0.10351034 0.03180832 -0.06639777 0.089687504 0.040293343 0.050335355 0.058804005
0.15601878 0.060570437 0.009989889 -0.06465285 0.027948588 0.018306918 0.02648388 0.021304248
-0.058656547 0.0025052642 -0.020236146 0.0055516213 -0.022434283 -0.08270709 -0.0023119499 -0.039905105
-0.2288108 -0.107213326 -0.0619214 -0.041399788 -0.081605755 0.109081596 0.12006934 0.042727146
-0.10677419 0.025270835 0.070048325 0.138168 0.101186395 -0.14879115 0.012298289 0.055077218
0.122186586 0.029528117 -0.1326105 -0.07423148 0.0039786594 0.06362497 -0.039596945 -0.1998898
-0.07991349 -0.0004722882 -0.012844174 -0.045800842 -0.18256955 -0.15353632 0.299769 0.21987407
0.07914274 0.10669444 0.1622288 0.22658253 0.2691779 0.108938746 0.21216705 0.2369819
0.1918238 0.17522134 0.13944508 0.1384076 0.24668483 0.08648757 0.10558976 0.033711925
0.0034477476 0.012772693 0.16602829 0.01803886 -0.075152196 -0.2228645 -0.0037358021 0.15304261
0.14856946 0.08136487 0.087244496 0.10137841 -0.19104661 -0.30465487 -0.15662926 -0.21038815
-0.17211515 -0.4685614 -0.62314516 -0.66168356 -0.56447226 -0.3569992 -0.46457967 -0.7686906
-0.926024 -0.974427 -0.63417006 -0.3520866 -0.6134546 -0.73592913 -0.67369026 -0.30874455
-0.039312366 0.12673709 0.107130915 0.14940621 0.057886045 -0.15094572 0.007851163 0.07012638
0.06918962 0.112428635 -0.011028457 0.1490383 0.18796992 0.14681117 0.05372841 0.010852755
0.12761533 0.14424953 0.14437926 0.102039896 -0.024097502 -0.1856615 -0.19661778 -0.15987553
-0.15410323 0.09738948 0.03210038 0.07411443 0.18361874 0.12429651 -0.019639114 -0.006352768
0.0007371704 0.0010859688 0.1366207 0.062322047 -0.13718604 -0.079411656 -0.09442446 0.047266304
-0.026553202 -0.19497372 -0.05578598 -0.019099073 0.16768552 0.07434044 -0.12545538 -0.0793842
-0.02682805 0.039334062 0.103408866 0.06629277 0.06522423 -0.03062753 0.09938247 0.06855955

conv2.bias f4 [16]
00000000: a6d9 8ebe d9d7 193e 166a c33e d979 8f3c
00000010: 1e9f abbd 83ef 3fbe c0a3 c9ba a89b acbe
00000020: d2a6 3d3e aac3 0c3e 9d3f c2bd 6a34 d3bc
00000030: 1ee7 953e 256f 0abe c60b 7c3d 84ce c13d
-0.27900428 0.15023746 0.38166875 0.017514156 -0.083799586 -0.1874371 -0.0015383884 -0.33712506
0.18520668 0.13746515 -0.094847895 -0.025781829 0.2927789 -0.13518961 0.061534666 0.09463218

fc1.weight f4 [256, 400]
00000000: 4734 5fbe 240d c1bc e557 96bd 287c 15bd
00000010: c378 283d a68f d43d 9a54 4f3e 1dc6 433e
00000020: c9c1 1b3e 6272 813d 78e8 e8bd dd05 f3bb
00000030: c708 e3bd fdab 9ebc b0b6 c9bd 8474 da3a
00000040: 3415 0c3d d283 353d eda3 2c3d d316 16be
00000050: e2ac 283e db9e d53d 51e7 2d3e 9ab8 fabd
00000060: f44b 45be cece 263e af55 f03d 1b41 203d
00000070: a6f4 513c a6e0 c93d 2222 3bbe 8d42 06be
00000080: af50 12be c910 87bd feca d7bd bfa3 383e
00000090: c299 873d df33 5e3e 9bfc 403d c5bd f33d
000000a0: c247 c43d 0207 133e 163c e63d 4994 2bbd
000000b0: 7d24 373e 77b1 d13d 2436 c73d 6926 1ebc
000000c0: 98a9 ffbc 66ee d53d 3340 823d fe83 443e
000000d0: 0ae0 3d3e 28df 8d3d 31bc b43d 15b8 5d3d
000000e0: 3b18 0d3d 8e1a f8bc 0f2b 0e3d a4ee a2bc
000000f0: abae 0f3d 39da 31bd 00f1 e5bc 4d78 06be
00000100: 7b46 90bc d468 fbba 7f40 aabc c4c5 b73b
00000110: 37cf 64bc 8e9a 3d3d d9b0 0ebd 9718 f5bb
00000120: 6419 af3c 7cae c3bc 52fd 5e3d 5e6e 1fbe
00000130: 15a7 81bd c96b 38bd 9c65 8b3d 227c 44bd
00000140: 8698 4c3d 5b0b 383c b258 ab3c 4925 bd3d
00000150: b15e 85bd 6cb5 9ebe 17bf 90bb 524a 823e
00000160: 87b4 ac3d 8321 00be 7e57 72be 0e27 ddbd
00000170: e4bd 353d aec7 923d 4407 81be 37fe bcbd
00000180: 7430 8abe 9fc8 aabd 1d85 08be a3ee 80be
00000190: 1864 5ebc 2b85 d13d c324 563d e4b7 943d
000001a0: 0551 28bd 3846 503d 47df c43c 9607 153e
000001b0: 15f2 7f3e c071 9f3d e386 49bd 974d 383d
000001c0: 5027 003e fbdf 443e 8768 06bd 4e33 98bd
000001d0: f172 f43c cf66 353e eeb1 9a3d 863f a3bc
000001e0: 99bb 87bd b6ba 87bc a7ba d3bc fb49 06bd
000001f0: a668 abbd 09df 9a3e 2942 203e 786f d83c
00000200: 37b2 0c3e e74f 3f3e 0098 2a3e 9360 f03d
00000210: 54ab 633e 6182 933d 846b a23c f999 1e3e
00000220: 11a2 463e e190 063e 2795 e33d 2d15 603d
00000230: 183b ff3d 57cb 403d f6f8 a53c 7194 aebc
00000240: 615b 6cbe cf79 463e 3a7a 753c e6cf e2bd
00000250: d3eb 5dbe cf38 1abe 2aa9 64bd 0e96 a1bc
00000260: 043f e43d 0de0 6c3d b782 f0bd 001e 9ebd
00000270: 9f08 00be 6b39 f4bd c69a efbd b84b 85bd
00000280: 6c95 02be 30f1 82be bf0b 68be 26d3 95be
00000290: 191e 44be ebb3 debd 5f2b 84bd 9492 49bd
000002a0: 8b42 31bd 9c6d a8bd 993c a23d 988b 273c
000002b0: 6e37 da3c 86d5 25bd 2d09 6c3d 7707 183e
000002c0: 0d08 043e 77f9 993d 3a99 bf3b e3d6 1bbe
000002d0: 4553 3e3e f842 dc3d 0665 b03d 0d6c b5bd
000002e0: 6b23 82bd 64a3 b73a 8ef4 a8bd 75e0 35bc
000002f0: 35bc a8bc e5e8 94bd e9e1 073c b81f b2bd
00000300: 4a7c a0bd d868 95bc ed5a 2cbd 0b06 6c3e
00000310: 55a3 00bc 447c e43d e334 823e 5b9c 543e
00000320: 6b63 c1be b4fd 14be 01d7 83bc 39ec 183e
00000330: 9e75 0a3e d4f9 00bd ef8c e23d 4dc0 1f3e
00000340: 14c9 823e 79fd 0d3e 7d1d 57bd d9a6 adbd
00000350: fd3c d93d 8a0f 623e f866 6c3d f9fb a0bd
00000360: 5b75 90bd d5c8 e3bd d0af d8bc fe75 80bd
00000370: 073b a7bd d353 073e a097 ce3d 978f 1e3e
00000380: bfc8 61bd 390f 9c3d 8463 3d3d 009b 0dbe
00000390: dac0 f3bd 8c5d ac3b 9c53 0a3d e961 b0bc
000003a0: c987 37be 4974 6dbe 5d0e c9bc 3e7f 2d3e
000003b0: 218d 90bc 8845 92bd f8a9 e0bd 3ab5 053d
000003c0: 3ae8 c53c 1b1b babd b808 d8bc 60d2 3dbd
000003d0: a7e9 993d ecc0 573e a61c 163d 573c 53bc
000003e0: 1818 a3bb ec44 94bd ebe9 903d b64b c53d
000003f0: adc3 c53d 9c3b 6d3c 9ea8 8f3e d102 f5bc
-0.21797286 -0.023565836 -0.07340983 -0.036495358 0.041130792 0.10378961 0.20247117 0.19118543
0.15210642 0.06320645 -0.11372465 -0.0074164704 -0.110856585 -0.01936912 -0.09849298 0.0016666804
0.03419991 0.044315167 0.04214852 -0.14657144 0.164722 0.1043069 0.16982771 -0.12242241
-0.19267255 0.16289827 0.11735093 0.03912459 0.012814676 0.098573014 -0.1827474 -0.13111325
-0.14288591 -0.065949984 -0.105367646 0.18031214 0.06621124 0.21699475 0.047115903 0.1190143
0.09583999 0.14358142 0.11241929 -0.041889463 0.17885013 0.10238927 0.097271234 -0.009652712
-0.031208798 0.104458615 0.06359901 0.19190976 0.18542495 0.06927329 0.08824957 0.054130632
0.034446936 -0.0302861 0.034709033 -0.019889183 0.035078686 -0.043421004 -0.02806902 -0.13131829
-0.017611733 -0.0019181021 -0.020782707 0.0056082923 -0.0139654195 0.046289973 -0.034836624 -0.007479738
0.021374412 -0.023886912 0.054440804 -0.15569445 -0.063306965 -0.045024667 0.0680649 -0.047969945
0.049950145 0.011233176 0.020916317 0.09235627 -0.065122016 -0.3099779 -0.004417311 0.25447327
0.0843287 -0.12512784 -0.23666188 -0.10798465 0.044370547 0.07166992 -0.25200856 -0.09228175
-0.26990092 -0.08339047 -0.13332029 -0.25182065 -0.013573669 0.10230478 0.052281152 0.07261637
-0.04109289 0.050848216 0.024032248 0.14553675 0.2499469 0.07785368 -0.049200904 0.04499587
0.12514997 0.19226067 -0.03281453 -0.074316606 0.029839965 0.17715 0.07553469 -0.019927751
-0.06627578 -0.016568523 -0.025845839 -0.032785397 -0.083695695 0.30248287 0.15650238 0.02642034
0.13739859 0.18682824 0.16659546 0.1173717 0.22233325 0.07202602 0.019826658 0.15488423
0.19397761 0.13141204 0.11112433 0.054707695 0.12462443 0.04706892 0.020260315 -0.021311017
-0.23081733 0.19382404 0.014982754 -0.1107481 -0.21671991 -0.15060733 -0.05582539 -0.019724872
0.11144832 0.05783086 -0.11743682 -0.07720566 -0.12503289 -0.11925014 -0.116994426 -0.06508583
-0.12752312 -0.25574636 -0.22660731 -0.29262656 -0.19152106 -0.108741604 -0.06453585 -0.049212053
-0.04327635 -0.08224031 0.07921714 0.010226153 0.026637759 -0.040486835 0.05762594 0.14846598
0.12893696 0.07518285 0.0058471235 -0.15218692 0.18586452 0.10754961 0.08613019 -0.088585
-0.06354412 0.0014010486 -0.0824977 -0.011100878 -0.020597557 -0.072709836 0.008293607 -0.08697456
-0.07836206 -0.01823847 -0.0420789 0.2304918 -0.007851441 0.11156514 0.25430974 0.2076277
-0.37771162 -0.14549905 -0.016093733 0.14933862 0.1352143 -0.031488255 0.11062037 0.156007
0.25544035 0.13866223 -0.052518357 -0.08479089 0.10607336 0.2207624 0.057715386 -0.0786056
-0.07053634 -0.1112229 -0.026451021 -0.06272505 -0.081655554 0.1321557 0.10087514 0.15484463
-0.055123087 0.07620091 0.046237484 -0.13828659 -0.11902018 0.005260175 0.033771142 -0.021531062
-0.17922892 -0.2318889 -0.024542982 0.1694307 -0.01764542 -0.07142168 -0.10969919 0.032643534
0.024158586 -0.09087201 -0.026371345 -0.046343207 0.07515269 0.21069688 0.036648415 -0.012892804
-0.0049772374 -0.07239708 0.07075866 0.09633581 0.09656463 0.014479544 0.28058332 -0.02990857

fc1.bias f4 [256]
00000000: f7ec 35be b503 7b3c 5d73 813e 073f e73c
00000010: ebde 4c3e c123 44bc ccd0 cd3d 0392 793e
00000020: 57d4 a23e 65aa 7c3e fdef 1cbd dcb0 b03c
00000030: 629f 4bbd 663d 703e d9fd 0fbd befa 43bc
00000040: a011 3d3c dc32 3dbd d2b7 323e e1ea 94bc
00000050: 4151 81bd acfd b83e ec50 3dbc 1b37 8d3e
00000060: 8e4d ea3d 5ecf 81bd 964b 0a3f 77f0 66bd
00000070: be3d 783d 9222 9d3e 8f05 64bd b3ab e7bd
00000080: c45f a93d d058 b7bc 06e5 d6bc 38a7 65bd
00000090: 866d a03e 0407 32bd e7b3 b9bd 3e79 4c3d
000000a0: 0f6d 84bd 526c 493d 2f56 8e3d 1880 6b3e
000000b0: a32c 12bd 7e18 dabc a36e 00bd 8abf 40bc
000000c0: ec88 e2bc 0d25 d93d 18da 11bd 4c3a 303e
000000d0: e95b bcbd 09ac ce3e 7659 eb3c a72f 92bd
000000e0: 2bb4 8f3e d24b 5c3c 3d94 24bd 999c 49bd
000000f0: a626 84bd 7e4e cc3d 9d4c b13e 9da2 e63b
00000100: ef3f 923d 9564 01be 24ca f33e 0580 7cbc
00000110: 41c0 323d 5547 b73e 7ec1 663b 4312 7cbc
00000120: 7fed b4bd 0fc6 2abe 03a4 a8bc 72a4 4ebc
00000130: 4d32 d53c 8f09 0b3f 3e12 10be d2ba e73e
00000140: 886e d53e 728e 12bd 4c33 0e3e 0caf d93b
00000150: 061b b3bd a5ab 133e 2126 883e c54b 79bd
00000160: ea4c 893d e2b3 553e 0b1b 12bd 72a2 b1bc
00000170: 1fc6 a33e e748 72be 9d51 943e 2228 b53e
00000180: f327 133e 2a72 953e aa76 f33d 18c1 023d
00000190: 3797 9fbd 952e 913e 2ab9 723e 50c8 913c
000001a0: e8fd 5c3e c223 27bd cd98 923c 1cc3 ecbc
000001b0: 0a46 e93d 9a6d 04bd aab7 a13e 640f 833c
000001c0: aa2c 59bd b1d4 45bd 3fee 91bc a9f0 e4bc
000001d0: 03d8 b63c 431f 923c 5485 5d3e 2a8f 90bd
000001e0: 4fc4 4bbc b863 6bbc db38 47be 287b 9c3e
000001f0: 0a25 743e 7cdd 31bd 1a9a 333e a26a 01bd
00000200: 59e3 26bd 7692 82be e746 373e 50a1 debc
00000210: 72fd 5bbe e291 80bd cf2f 4e3d 9e51 893d
00000220: 3ab7 c4bc 248c ee3c 29ac 7d3e 08de a9bb
00000230: 4ecc fbbb f3d3 dd3e 9a27 60bc 1142 b8bc
00000240: 0b87 69bd ccd2 b1bc d434 b93a 69b1 323e
00000250: 8cee cb3e ba66 dcbc 3ef9 103c 3d03 0dbd
00000260: 375e a63e d612 2ebe 1b81 cbbd 2b43 5d3c
00000270: b28c 2b3c cc73 383e 9ef9 ca3e fa55 543e
00000280: 4ed7 bdbc 9d20 b73c 8c0c 21bd a6d0 133d
00000290: 732c 3cbd c110 f9bc 955f 3dbc 03d5 49bd
000002a0: e228 a4b7 4293 8dbd 9f9c 3e3c e9b1 60bb
000002b0: cbe6 653d 1c4d 6cbd fbc8 f4bc 9e85 363d
000002c0: b4b5 463d 93f2 98bd 18aa 93bd 695c d53e
000002d0: 8e08 683e d33c 3bbc 0a73 5bbd eb9c 963d
000002e0: ed7d 06bd 0097 14bd e1c5 87bc f403 76bc
000002f0: 9053 553c aa7e b23d f115 ba3c 5d86 ae3e
00000300: d1d7 b8bd f051 073f dbee d63d 2eb4 68bd
00000310: 1e7b 003b 3fc0 113e c1b3 a43e 6622 4dbb
00000320: b6bf 7ebd 2535 163e f054 b5bc 7fb4 883c
00000330: 72f0 8ebd 8788 163f 1a15 b2bd f2bd 90bd
00000340: 593a b63e 3e4e 753e 2f73 32bd 76ec 92bd
00000350: ebcc c4bb 5a46 de3e 58e4 2c3b 6724 a43c
00000360: ee4a 083c 958e 97bd 653f 43bd cf89 cc3d
00000370: eca0 2c3d 344b 5bbe 26ed 2bbe 905e bd3e
00000380: abc4 05bd 0f64 263c 4286 1abe 21e8 30be
00000390: bccc 9e3e e026 143e 4d45 263d bd60 17bd
000003a0: 2664 1abd 39e8 7ebd 3af8 86bd d289 123d
000003b0: 8f27 883e 9715 74bd 8aa2 c6bd 6820 f33e
000003c0: 7f60 063d cb88 6abd 642d e93c 8522 e43e
000003d0: 72d4 9d3e 2aa6 6bbd 714b b53e c191 a9bd
000003e0: 8012 6f3e 20ac 0e3b fe31 e33c 0ba5 c43e
000003f0: 948d 073e ea69 c03e d75c aa3e 4c96 3d3e
-0.17766176 0.015320708 0.25283328 0.028228296 0.20006911 -0.011971415 0.100495905 0.24372105
0.31802627 0.24674375 -0.03831481 0.021568708 -0.049712546 0.23460922 -0.035154197 -0.011961637
0.011539847 -0.04619108 0.17452934 -0.018178405 -0.06314326 0.36131036 -0.011554938 0.27581105
0.11440574 -0.0633838 0.54021585 -0.05638167 0.060605757 0.30690438 -0.055669364 -0.11312046
0.08270219 -0.022381216 -0.026232254 -0.056067675 0.3133356 -0.043463722 -0.09067517 0.049920313
-0.06466114 0.049175568 0.06950032 0.22998083 -0.0356871 -0.026623007 -0.03135551 -0.0117644165
-0.02765318 0.1060277 -0.03560838 0.17209738 -0.09197218 0.40365627 0.028729182 -0.07137995
0.28067145 0.013445811 -0.040180434 -0.04922161 -0.06452684 0.09975909 0.34628764 0.007038428
0.071411006 -0.12636025 0.4761516 -0.015411382 0.04364038 0.3579661 0.0035210545 -0.015385213
-0.08834361 -0.16677116 -0.02058602 -0.012612449 0.026024962 0.5431146 -0.14069459 0.4525972
0.4168589 -0.035780378 0.13886756 0.0066431817 -0.08745389 0.14420946 0.2659159 -0.060863275
0.06704123 0.20869401 -0.03567032 -0.021683905 0.31987092 -0.23660623 0.28968516 0.3538218
0.14370708 0.29188663 0.11887868 0.03192243 -0.07792514 0.28355852 0.23703447 0.017795712
0.21581233 -0.040805586 0.017895127 -0.02890163 0.11390312 -0.032331087 0.31585437 0.01599855
-0.05302111 -0.04829854 -0.0178138 -0.027946787 0.0223198 0.017837172 0.21632892 -0.070585564
-0.01243694 -0.0143670365 -0.19455282 0.3056271 0.23842254 -0.043424115 0.17539254 -0.031595834
-0.04074416 -0.25502366 0.17898141 -0.02717653 -0.214834 -0.06277825 0.050338563 0.0670502
-0.02401315 0.029119559 0.24772705 -0.005183939 -0.007684267 0.43325767 -0.013681317 -0.02249244
-0.057013553 -0.021706961 0.0014130124 0.17450489 0.39830434 -0.026904453 0.0088484865 -0.034426916
0.32493755 -0.16999373 -0.09936734 0.013504784 0.010470556 0.18012923 0.39643568 0.20735922
-0.023173954 0.022354418 -0.039318606 0.036087655 -0.045940828 -0.030403497 -0.011558433 -0.04927541
-1.9569361e-05 -0.06912853 0.011634021 -0.003428573 0.056128304 -0.057690725 -0.029880991 0.04456102
0.04851313 -0.07468142 -0.07210177 0.41672066 0.22659513 -0.011428076 -0.053576507 0.073541485
-0.032834936 -0.036276817 -0.016573848 -0.015015591 0.013020411 0.087155655 0.02271554 0.34086886
-0.09025539 0.528594 0.10494777 -0.056812458 0.0019604634 0.14233492 0.3216839 -0.003130102
-0.06219455 0.1466871 -0.022135228 0.01668763 -0.06979455 0.58802074 -0.08695431 -0.07067479
0.3559139 0.23955628 -0.04356688 -0.071740076 -0.0060058734 0.4341305 0.002638122 0.02003689
0.008318646 -0.07400242 -0.04766788 0.099872224 0.042145655 -0.21415406 -0.16789684 0.36986208
-0.03265826 0.010155692 -0.15090278 -0.1727605 0.31015575 0.14467955 0.040593434 -0.03695749
-0.037693165 -0.062233184 -0.06590314 0.035775967 0.2659268 -0.059590902 -0.096989706 0.47485662
0.03280687 -0.057259362 0.028464027 0.44557586 0.30826145 -0.057531513 0.3540912 -0.082797535
0.23346901 0.0021770075 0.0277338 0.38407168 0.13237602 0.37580806 0.33273956 0.18514365

fc2.weight f4 [10, 256]
00000000: 0f08 053e d45c 45bd dca2 a5be 9fa2 2b3d
00000010: 1b4e 52be f56a d4bb bab0 e23d 2f4b bdbc
00000020: db5d 90be bf4d 9fbe 8e03 25bd eafd 7b3d
00000030: 75f2 5dbc 3db2 0dbe e4ae 183d 6b17 2dbd
00000040: 1759 89bd be8f 90bd f5ce 9ebc ef40 16bc
00000050: 2041 503d 582b 6b3e d67a bb3c fe33 63bb
00000060: b142 85be 634f d43a f23c edbd 25fd 03be
00000070: 12f5 a0bd 2e8d 373d 5b81 29bd 0476 c2bd
00000080: 94c2 0c3e 69f9 2b3d 780d 163a fc8a 623e
00000090: dfc2 aebe 7a84 14bd 5ec8 69bc 6ae6 debe
000000a0: ceec bc3d 3da1 60be 9d59 94bd 61f4 0abe
000000b0: 885c 863e 33bf ff3c 09d2 7e3c bed1 93bb
000000c0: dc7b 453d 2852 413d e0da ee3c b9a1 bd3d
000000d0: 2287 c03d c608 dabe 846f d73c ccc1 2c3d
000000e0: 7d0d 01bd 3cd2 d33c ffe9 063e ff11 08bc
000000f0: 1393 2b3c f28a 833d 7bac 30be f743 793c
00000100: 5302 ee3d 17b8 c7bd 0366 ac3d 984c e23c
00000110: 7aeb 89bd a1a3 273e fd0e bfbc a4ba 91bc
00000120: c091 cfbc 4a4f 5f3d 2b68 ee3c 3075 07bd
00000130: dede 643c d49b 023e 9af7 64bd a730 83be
00000140: 77ea dc3d 7619 cebc 4e1e 9d3d bfb7 0fbd
00000150: a04d c6bb 6901 2bbe e21a b03d e5bc c6b9
00000160: 991b 15be 29d8 d3bd 47c5 333d c0b1 98bd
00000170: b232 fdbd 6c72 ca3d 85ec cdbd 5865 95bd
00000180: 3fe6 603d 37e4 723d e950 9ebb 9771 a43c
00000190: 4d7c cb3b b0e7 ae3d fb68 ad3d d4ef d83c
000001a0: ef32 ed3d 3a54 b93c 4eba 33bd 5605 9fbc
000001b0: 7440 cabd 4ba0 5c3d 6b80 b63d 8327 e13b
000001c0: 53e2 873c 833c 883c 5b8f afbd f342 90bd
000001d0: d85d b53c de56 95ba 1e93 023e 4064 a93a
000001e0: 7cb1 c43c 70b5 11bb e015 383d 1fae 77bd
000001f0: c00c 693d c9ca 61bd 31bb 04bd d086 a73c
00000200: 2c0a 90bd a841 053e 8adb 5ebd 6783 28bd
00000210: 3587 a03d 9dfe f33c afa7 963d 137c 663d
00000220: eb72 1e3d c8e3 c93d e02e 243d 8570 79bd
00000230: 2f65 6fbd de8b 86bd 88a2 b43c 23fc b5bc
00000240: e6d5 65bc bd97 913c 46f3 6ebd a2f6 8d3e
00000250: b904 4dbe 97ab a1bd 1bae ca3c 1f8e fd3d
00000260: 391d 123e 0fbf b53d 875b aabd 96c0 343d
00000270: c033 823c 9910 d63d a231 3fbe be4d c5bd
00000280: 78e9 273e eea8 5dbd 16c3 70bc 5e01 203e
00000290: e3be 9b3c 357f 00bd 7b73 bdbc f93d b0bd
000002a0: 45b3 b1bd 4875 103e a9c0 323c 1f65 abbd
000002b0: d71a 053e 1af0 75bd f53b d4bc 0083 f9bc
000002c0: 11b2 07bd 9443 67be 2bc6 28be ecaa 4dbc
000002d0: d638 d83d 715c 9c3c 2a8b c53c a608 8bbd
000002e0: 1337 3a39 f23d 37bd b828 a43b 9418 b9bc
000002f0: 7301 5d3d 72c0 91bd 8c2b b43c 0f94 53be
00000300: fb5a f33d c2d7 09be 18df 0c3e d56f 363e
00000310: 7238 f9bc aad0 993d f24a c0bd c4a9 283c
00000320: 8720 8cbc 54a7 ddbc ade8 17bd 53e1 213d
00000330: a0e3 b0bd 9983 e4be 18f7 133e feea 7ebb
00000340: 1b5e ffbd 0385 49be a692 4e3d a584 32bd
00000350: 0863 8abb fab8 b0bb 2a7d 1d3d e538 bb3c
00000360: 1888 2c3d d143 48bd 9b82 12bd c010 05be
00000370: 776a aa3d abae c1bd a03b a0bc 32c8 45be
00000380: ddf6 4ebd 03d5 7c3b fa20 06be c54b 1d3e
00000390: 7b4f bcbd e7cb 4f3d 05c3 9bbd 58ef 0a3c
000003a0: bf55 bd3c 09b2 84bd 538d e43c da4d b23d
000003b0: 56af b93d a48d d1bc a19d c23c f818 c0bd
000003c0: 9799 04bc 93b9 533c 452a 4b3d c569 f03d
000003d0: 3369 9cbe ca2b 20bd 6c32 05be 224f 5e3c
000003e0: 88b1 0dbd 1848 56bd ded1 cebd 93f2 91be
000003f0: f705 003e a32d 93bc 7b19 8fbd 82e9 113d
0.12991355 -0.04818423 -0.32350814 0.041903134 -0.20537607 -0.006482477 0.11068864 -0.02310714
-0.28196606 -0.31114003 -0.040286593 0.06152145 -0.013546576 -0.13837524 0.037276164 -0.04225866
-0.06706446 -0.07058667 -0.019385794 -0.009170755 0.050843358 0.22965753 0.022885721 -0.003466844
-0.26027444 0.0016197975 -0.1158389 -0.12889536 -0.078592435 0.044812374 -0.04138313 -0.09495166
0.137461 0.041985903 0.0005724053 0.22123331 -0.3413305 -0.036259152 -0.014268963 -0.43535167
0.092248544 -0.21936508 -0.07243655 -0.13569786 0.2624247 0.0312191 0.015553006 -0.004511087
0.048213825 0.04719749 0.029157102 0.09259362 0.094007745 -0.4258482 0.026298292 0.042177007
-0.031507004 0.025857083 0.131752 -0.008305072 0.010472077 0.06422986 -0.17253296 0.015213958
0.11621537 -0.09751909 0.08417895 0.027624413 -0.06734367 0.16371013 -0.023322577 -0.017789192
-0.025338054 0.054518975 0.029102406 -0.033070743 0.013969151 0.12754756 -0.055900194 -0.25623056
0.10786908 -0.025158625 0.07671796 -0.035087343 -0.006051734 -0.16699757 0.085988775 -0.0003790624
-0.14561309 -0.10343964 0.04388931 -0.07455778 -0.12363185 0.098851055 -0.10054878 -0.072947204
0.05490708 0.059299674 -0.0048314226 0.020073695 0.006209886 0.08540285 0.08467289 0.026481546
0.115819804 0.02262317 -0.043878846 -0.019411724 -0.09875575 0.053863805 0.089112125 0.0068711652
0.016587412 0.016630417 -0.08572265 -0.070440196 0.022139475 -0.0011393686 0.12751433 0.0012923554
0.024010412 -0.002223339 0.044942737 -0.06046879 0.056896925 -0.05512503 -0.032405082 0.020450026
-0.0703319 0.13013327 -0.054408588 -0.04114094 0.07838289 0.029784495 0.07356202 0.05627067
0.038683813 0.09857899 0.040083766 -0.060898323 -0.058446106 -0.06569646 0.022050157 -0.022214955
-0.014028048 0.01777255 -0.058337472 0.27727228 -0.20021333 -0.07894056 0.024741223 0.12380623
0.1426896 0.08874332 -0.08318239 0.044128977 0.015893817 0.104523845 -0.18671277 -0.09633969
0.16397655 -0.054116182 -0.01469495 0.15625522 0.01901192 -0.031371314 -0.023126354 -0.0860557
-0.08676771 0.14107239 0.010910192 -0.08368897 0.1299852 -0.06004343 -0.025907496 -0.030457973
-0.0331288 -0.22584373 -0.16481845 -0.012552958 0.105577156 0.019087048 0.02411421 -0.06788759
0.00017758859 -0.04473681 0.005009737 -0.022594728 0.05395646 -0.07116784 0.021993421 -0.20661949
0.118825875 -0.13461211 0.13756979 0.17816098 -0.030422423 0.07510503 -0.09389295 0.0102943815
-0.017105354 -0.027057327 -0.03708713 0.039521527 -0.08637166 -0.4463165 0.14449728 -0.003889739
-0.12469121 -0.19679646 0.050432824 -0.04358353 -0.004223231 -0.0053931447 0.038449444 0.022854278
0.042121977 -0.0488928 -0.035769086 -0.12994671 0.08321088 -0.094571434 -0.019559681 -0.1931465
-0.050528396 0.0038579113 -0.13098517 0.15360935 -0.09194847 0.050731566 -0.076055564 0.008479916
0.023112176 -0.0647927 0.02789942 0.08706255 0.09066646 -0.025580235 0.023756804 -0.093797624
-0.008093259 0.012922662 0.04960086 0.11738924 -0.3054901 -0.03910426 -0.13007516 0.013568671
-0.034593135 -0.052314848 -0.10098623 -0.28505382 0.12502275 -0.017966097 -0.06987282 0.03562308

fc2.bias f4 [10]
00000000: 39cf b0be 2e92 5ebe 13d8 79be eb35 ba3e
00000010: df6e c33e 6d4f bcbd 75d8 b7bc c591 123d
00000020: 710c 363e 73c4 48bd
-0.34533098 -0.2173545 -0.24398832 0.3636926 0.38170525 -0.09194837 -0.022442082 0.035783548
0.17778184 -0.049015474
